pth/model.pth (torch, 810965 bytes, 77 tensors)

conv.weight f4 [16, 3, 3, 3]
0	0xba84fe51	-0.0010146593
1	0x3e0c6137	0.1370896
2	0xbf412527	-0.75447315
3	0xbe5bfa8e	-0.21482298
4	0xc031e675	-2.779691
5	0x40090ab7	2.141279
6	0x3f258f82	0.646721
7	0xbf73a21a	-0.9516922
8	0x3eee4ab9	0.46541384
9	0x3e3f0c02	0.18656924
10	0x3b56bf9f	0.0032768024
11	0x3ed92459	0.42410544
12	0xbf14835d	-0.58012944
13	0xc02bf984	-2.6871042
14	0x407ff25a	3.999167
15	0x3f5dc562	0.8662931
16	0xbe4fcf10	-0.20293832
17	0x3f827e7f	1.0194854
18	0x3f04d708	0.5189061
19	0x3e6409ef	0.22269414
20	0xbf1b33cb	-0.60625905
21	0xbf38a627	-0.7212853
22	0xc01e9981	-2.4781191
23	0x40089868	2.1343021
24	0x3e08fde8	0.13378108
25	0xbf8b2383	-1.0870212
26	0x3e2745f5	0.1633528
27	0x4011d8b7	2.2788522
28	0x4045bf67	3.0898073
29	0x3f7dcb16	0.9913801
30	0x3fa99526	1.3248641
31	0x401b0edb	2.4227817
32	0x3f91ba58	1.1384993
33	0x3f238bec	0.6388538
34	0x3e9ae84b	0.3025535
35	0xbf59200e	-0.84814537
36	0xbf26236c	-0.648978
37	0xbf5bdcf3	-0.85884017
38	0xbf93e87f	-1.1555327
39	0xbfc8cdcc	-1.5687804
40	0xbfa70fef	-1.3051738
41	0xbf410070	-0.7539129
42	0xbed5019f	-0.416028
43	0xbf8f5704	-1.119843
44	0xbf1c00c6	-0.6093868
45	0xbfb2080f	-1.3908709
46	0xbf842054	-1.0322366
47	0xbf3c46ed	-0.73545724
48	0xbff6115c	-1.9224048
49	0xbf9d8164	-1.2305112
50	0x3edd0308	0.43166375
51	0x3f02d963	0.51112956
52	0x3f48f23e	0.7849463
53	0x3fb6cca8	1.4281206
54	0x3fe4e44a	1.7882168
55	0x4006856f	2.1018941
56	0x3feb5090	1.8383961
57	0xbdfe1564	-0.12406424
58	0xbcaf7c67	-0.021421624
59	0xbe3e877b	-0.18606369
60	0xbfc452d4	-1.5337777
61	0xc011dbf8	-2.2790508
62	0xbfc50342	-1.5391619
63	0x3fca7c40	1.5819168
64	0x3fdfc8ce	1.7483156
65	0x3fe7fd41	1.8124162
66	0xbefb5cb1	-0.49094155
67	0xbf40a47f	-0.75251
68	0xbf17b9c9	-0.5926786
69	0xbf9706df	-1.1798972
70	0xc0029341	-2.0402377
71	0xbfa1d574	-1.2643266
72	0x3ec60ca8	0.3868153
73	0x3f24ea6f	0.6442022
74	0x3f76d172	0.9641334
75	0xbf696848	-0.91174746
76	0xbef3dd54	-0.47629797
77	0xbeb26cb6	-0.34848565
78	0xbd9bd246	-0.07608466
79	0xbf11b8b5	-0.56922466
80	0xbe9580db	-0.2919987
81	0x3d986e88	0.07442957
82	0x403ab930	2.917553
83	0x3f61906f	0.88111013
84	0x3f981761	1.1882135
85	0x3faf0ffb	1.3676752
86	0x3f1a6e19	0.60324246
87	0x3f50e861	0.8160458
88	0x3f29f9b4	0.6639664
89	0x3f47874d	0.7794083
90	0x3f588e5e	0.84592235
91	0x406f6395	3.740453
92	0x3f5e5d5a	0.86861193
93	0x3f81401d	1.0097691
94	0x3fbd485b	1.4787706
95	0xbe468472	-0.19386461
96	0xbe8a7911	-0.2704549
97	0xbea07ead	-0.31346646
98	0xbf492141	-0.78566366
99	0x3e40b39e	0.18818519
100	0x400e6cab	2.2253826
101	0x3ec13073	0.37732276
102	0x3e447c9b	0.19188158
103	0x3ec6de29	0.3884137
104	0xbf664e93	-0.89963645
105	0xbfc378ee	-1.527128
106	0xbfc2835d	-1.5196339
107	0xc00960e4	-2.1465387
108	0xbfa70ee9	-1.3051425
109	0xbf8ac87b	-1.0842432
110	0xbebf9cd1	-0.3742433
111	0xbfda6ad0	-1.7063847
112	0xbfc37310	-1.5269489
113	0xbf63d1b5	-0.8899186
114	0xbff5bd69	-1.9198428
115	0xbfc86b63	-1.5657772
116	0xbf124dfe	-0.57150257
117	0x3f239df3	0.63912886
118	0x3f01c002	0.50683606
119	0xbe84af56	-0.2591502
120	0x3f448285	0.76761657
121	0x3f109d99	0.56490475
122	0xbd3c49d1	-0.045968834
123	0xbeb907a1	-0.36138633
124	0xbe87d319	-0.26528242
125	0xbef33001	-0.47497562
126	0x3fcce466	1.6007202
127	0x400858a6	2.1304107
128	0x3e8cd8f3	0.2750927
129	0x402a8adc	2.6647253
130	0x4043a56c	3.0569715
131	0x3f5cbbc3	0.86224
132	0x3eae3ee3	0.34032354
133	0x3f92fc62	1.1483271
134	0x3d534ca8	0.051586777
135	0x3f1adb2d	0.60490686
136	0x3f88dfdf	1.069332
137	0x3f8ce6ec	1.1007972
138	0xbf6fce01	-0.9367371
139	0x3f6d29df	0.92642015
140	0x400315ce	2.0482059
141	0xc03d3b7d	-2.9567559
142	0xbffd0e19	-1.9769927
143	0x3ce09770	0.027415961
144	0xbf29220d	-0.6606758
145	0xbed962f3	-0.42458305
146	0x3d7761b9	0.06039593
147	0xbfcfa149	-1.6221095
148	0x3ca4d0a7	0.020119024
149	0x3f8f14e6	1.1178253
150	0xc05f15be	-3.485702
151	0xc027730b	-2.6163967
152	0xbf2da6a9	-0.6783243
153	0x3e9a2e28	0.3011334
154	0xbef0b0c8	-0.47009873
155	0xbf46912c	-0.77565265
156	0x3ebde2a6	0.37086982
157	0x3f1282e4	0.57230973
158	0x3e75d2d9	0.24006213
159	0x3eea43b8	0.4575479
160	0xbf00ed3b	-0.50361985
161	0xbedff3c0	-0.43740654
162	0x3f39043c	0.72272086
163	0x3fca4c54	1.5804543
164	0x3f8d658a	1.1046612
165	0x3ffba49e	1.9659612
166	0xbecf280e	-0.40460247
167	0xbf4eb091	-0.8073817
168	0x3e5c49b8	0.21512496
169	0xbe87c29a	-0.26515657
170	0xbe46042b	-0.19337527
171	0xbe4bcb89	-0.19901861
172	0xbf62d37d	-0.88603956
173	0xbe6940c2	-0.2277861
174	0x3f4a27d3	0.78967017
175	0xc097f096	-4.7481184
176	0xc04650eb	-3.0986888
177	0xbf9428fb	-1.1575006
178	0xc002345d	-2.034446
179	0xbd2a6184	-0.041596904
180	0xbffb61ff	-1.9639281
181	0xbf05bb6f	-0.52239126
182	0x3e740908	0.2383157
183	0x3f005696	0.5013212
184	0xbf922bb9	-1.1419593
185	0xbdcf0e76	-0.1011018
186	0x3e3c84c2	0.18410018
187	0x3f908ed6	1.129359
188	0x3ff76161	1.9326593
189	0xbf17cc1e	-0.59295833
190	0xbe788b31	-0.24271847
191	0xbed8d3bc	-0.4234904
192	0x3f073f06	0.5283054
193	0x3f03cf3d	0.51488096
194	0xbca7628a	-0.02043273
195	0x3dc29c38	0.095024526
196	0xbe07b8c2	-0.13254073
197	0xbe8aab52	-0.27083832
198	0xbf56d305	-0.8391574
199	0xbf4ecc1e	-0.8078021
200	0xbf8b2c00	-1.0872803
201	0x3deaabd2	0.114585534
202	0x3cdc44db	0.026888302
203	0xbe5b90af	-0.21441911
204	0xbe8edd8b	-0.279034
205	0xbeaa648a	-0.3327983
206	0xbec3b910	-0.3822713
207	0xbf1eb56a	-0.61995566
208	0xbe70f2eb	-0.23530166
209	0xbf23af5c	-0.6393945
210	0x3e8494b5	0.25894704
211	0x3ec912d7	0.39272186
212	0xbd6343f5	-0.05548473
213	0xbe055ff8	-0.1302489
214	0xbe05a817	-0.13052402
215	0xbed0b089	-0.40759686
216	0xbe990dde	-0.29893392
217	0x3edcf04b	0.4315208
218	0x3fa468e3	1.2844509
219	0x3d8a0133	0.0673851
220	0x4074670d	3.8187897
221	0xbf9d46c4	-1.2287221
222	0xbf6c571f	-0.92320436
223	0xbfbde581	-1.4835664
224	0xbe69d038	-0.22833335
225	0x3db76b0c	0.089559644
226	0xbe815e2c	-0.2526716
227	0xbed26f7f	-0.4110069
228	0x3f322d0d	0.6959999
229	0x4055ff04	3.34369
230	0xc0075a60	-2.114891
231	0xbf37cda4	-0.7179816
232	0xc011a7c7	-2.2758653
233	0xbf337ac7	-0.7010922
234	0xbf53e84c	-0.8277633
235	0xbf7be523	-0.9839651
236	0x3f0b2f5d	0.54369146
237	0x3ec9a494	0.39383376
238	0x4054e6aa	3.3265786
239	0xbf4039b3	-0.7508804
240	0x3e569173	0.20953922
241	0xbeb5db18	-0.35518718
242	0x3e9c8b5b	0.3057507
243	0xbfb1aac2	-1.3880236
244	0xbf6bb691	-0.9207545
245	0xbefbb23b	-0.49159417
246	0xbf6b7e55	-0.9198964
247	0xbf017f1c	-0.5058458
248	0xbf2e054d	-0.6797684
249	0xbf41c871	-0.75696474
250	0xbfdfa7ab	-1.7473043
251	0xbf04ff0b	-0.51951665
252	0xbfa44492	-1.2833426
253	0xbf40c3dc	-0.7529886
254	0xbfb6dd8a	-1.4286358
255	0x3d14a488	0.03628972

bn.weight f4 [16]
0	0x4040a78e	3.0102267
1	0x3f9d79fd	1.2302853
2	0x40332c9a	2.7995973
3	0x3fb42fd6	1.4077098
4	0x3f9d068f	1.2267627
5	0x3fbbc817	1.4670438
6	0x3fe079d5	1.753718
7	0x3cdbf2ef	0.026849238
8	0x4036718f	2.850681
9	0x3f5edd10	0.87056065
10	0x3f6f254e	0.934163
11	0x3fa10384	1.2579198
12	0x4022112d	2.5322983
13	0x3fb1efed	1.3901345
14	0x3fd0ea87	1.6321572
15	0x40036afc	2.0534048

bn.bias f4 [16]
0	0x40401e95	3.0018666
1	0xbeffee4d	-0.49986497
2	0xbd4d08d7	-0.05005726
3	0xbf04064e	-0.5157212
4	0x3f61762c	0.8807094
5	0xbf70b1f4	-0.94021535
6	0xbde5e1cc	-0.11224708
7	0xbf330264	-0.6992552
8	0x408778a9	4.233479
9	0xbd67603b	-0.056488257
10	0xbf2f0e05	-0.6838077
11	0x3f76ec62	0.9645444
12	0x3fead78c	1.834703
13	0xbaecbeb8	-0.001806221
14	0x3ed056a1	0.40691093
15	0x3fa99454	1.3248391

bn.running_mean f4 [16]
0	0xbe1174be	-0.1420469
1	0x3e0bf076	0.13665947
2	0xbf53fca7	-0.8280739
3	0x40cc7f99	6.390576
4	0x3f307041	0.68921286
5	0xc0727a7a	-3.7887254
6	0xc05f4c22	-3.4890218
7	0xc026dbcc	-2.6071653
8	0x3f1995a3	0.5999395
9	0xbf9de18e	-1.2334459
10	0xc036401d	-2.8476632
11	0x3edc4dbb	0.43028054
12	0xbeacc149	-0.33741215
13	0xc04e659d	-3.224952
14	0x3ea54ae3	0.32283697
15	0x3e801bde	0.2502126

bn.running_var f4 [16]
0	0x3fba10c8	1.4536371
1	0x3fc8b651	1.5680639
2	0x40b845ac	5.758505
3	0x413e6728	11.900185
4	0x407b5b68	3.927454
5	0x40c774d0	6.2330093
6	0x4067eb07	3.62372
7	0x3ff16f19	1.8862029
8	0x3f996f4d	1.1987091
9	0x4048ab6d	3.135463
10	0x408fa33a	4.488675
11	0x4066aac5	3.604173
12	0x4073c19a	3.8086915
13	0x408421d1	4.129128
14	0x3eca3416	0.39492863
15	0x40301e09	2.7518332

layer1.0.conv1.weight f4 [16, 16, 3, 3]
0	0x3ff61703	1.9225773
1	0x3f7f750c	0.99787974
2	0x3fb563c5	1.4171072
3	0x3fb94428	1.4473925
4	0x3fd3b15b	1.65385
5	0x40029fd1	2.0410044
6	0x3fd5d8df	1.6706809
7	0xbf801a54	-1.0008035
8	0xbeb3a18e	-0.35084194
9	0x3e5dcf65	0.21661146
10	0x3f8c9edd	1.0985981
11	0x3fe2ae5f	1.7709464
12	0x3e3573e8	0.17719996
13	0x3fa7efb4	1.3120027
14	0x3fe76394	1.8077264
15	0xbec07aa4	-0.37593567
16	0x3ef605bb	0.48051247
17	0x3f0a49ca	0.54018843
18	0xbf3668d0	-0.7125368
19	0xbe9a2009	-0.30102566
20	0xbe130469	-0.14357151
21	0xbfd26d90	-1.6439686
22	0xbf5e0a28	-0.8673425
23	0xbf1c0523	-0.6094534
24	0xbfaa0394	-1.3282342
25	0xbfc3de7b	-1.5302271
26	0xbf99fda1	-1.2030526
27	0xc050c411	-3.261967
28	0xc0212c91	-2.518345
29	0xc01766a1	-2.365639
30	0xc06e7cc5	-3.7263653
31	0xc050f2f5	-3.264829
32	0xc017ef9d	-2.3739998
33	0xc0a217bf	-5.0653987
34	0xc060267c	-3.502349
35	0xbffdfc3e	-1.9842603
36	0x3e9ced62	0.3064986
37	0xbf3a3eb2	-0.72751915
38	0xbfb2ecdf	-1.3978537
39	0x3bd8c9d3	0.006615856
40	0xbf00c658	-0.5030265
41	0xbf1a6b6b	-0.60320157
42	0x3f4f4d93	0.80977744
43	0x3e5c2497	0.21498333
44	0x3e6f743f	0.23384188
45	0x3fdf51d1	1.7446843
46	0x3fdb1665	1.7116209
47	0x3f95fee6	1.1718414
48	0xbe0654a6	-0.13118228
49	0xbcfed7e0	-0.031108797
50	0x3f20c454	0.6279957
51	0xbf8377d3	-1.0270942
52	0xbf799791	-0.97496897
53	0xbecd6b00	-0.40120697
54	0x3e69ad4f	0.22820018
55	0x3f356bb3	0.7086746
56	0x3fa1dde7	1.2645844
57	0x3c45af01	0.01206565
58	0xbe8790f4	-0.26477778
59	0xbe0ff1ac	-0.14057034
60	0xbf698d3f	-0.9123115
61	0xbf801369	-1.0005924
62	0xbf699cce	-0.9125489
63	0xbd985c78	-0.07439512
64	0xbe5b8883	-0.21438794
65	0xbd0776a1	-0.033072118
66	0xbe3ab47f	-0.18232916
67	0xbe754118	-0.23950613
68	0xbdeb3647	-0.11484962
69	0xbd791d5e	-0.060819022
70	0xbe32b804	-0.17453009
71	0xbddbfdca	-0.10741766
72	0xc001098c	-2.0162077
73	0x3e2c504f	0.1682751
74	0xbf937b88	-1.1522074
75	0xc007bbf0	-2.1208458
76	0xbfe0f474	-1.7574601
77	0xbf97fc48	-1.1873865
78	0xbf0c56f9	-0.5482021
79	0x3f729239	0.9475437
80	0x3f9d790d	1.2302567
81	0x3ffa6323	1.9561504
82	0x3f77eeb1	0.9684859
83	0xbe3fbed1	-0.18725134
84	0x3fc2f8a3	1.5232128
85	0x3e2044d2	0.15651253
86	0xbf052136	-0.520038
87	0x3fc4e1bb	1.5381387
88	0x3ed5a350	0.4172616
89	0xbf22d6ca	-0.6360899
90	0x3fb6c570	1.4279003
91	0x3f0e5b74	0.55608296
92	0x3f32c5d1	0.69833094
93	0x3e30c404	0.17262274
94	0xbf53ca41	-0.8273049
95	0xbf18e3dc	-0.59722686
96	0x3f0332ea	0.51249564
97	0xbe50eac9	-0.20402063
98	0xbf502508	-0.81306505
99	0xbfc26f75	-1.5190264
100	0xbf0e716c	-0.5564182
101	0xc007c250	-2.121235
102	0xbf9bdccd	-1.2176758
103	0xbf74a9b4	-0.95571446
104	0xc015a7af	-2.3383596
105	0xbfbc70ab	-1.4721884
106	0xbf21ac02	-0.6315309
107	0xbfa1b15f	-1.2632254
108	0x3e8e4982	0.27790457
109	0x401c46b2	2.441815
110	0x3feff3c0	1.8746262
111	0x400650cc	2.0986814
112	0x400be6a0	2.1859512
113	0x3f9dd471	1.2330457
114	0x40093968	2.1441288
115	0x401253ea	2.2863717
116	0x3fdc623c	1.7217479
117	0x3f1b9e61	0.6078854
118	0x3f515be6	0.8178085
119	0x3ed2c2ff	0.41164395
120	0xbed440fe	-0.41455835
121	0xbcd28b08	-0.02570106
122	0xbe8679ac	-0.26264703
123	0xbf8d5ebf	-1.1044539
124	0xbf08f212	-0.5349437
125	0xbf3e62c7	-0.7436947
126	0x3fbb75d7	1.4645337
127	0x3fdfd9f0	1.7488384
128	0x3fcf0d50	1.6175938
129	0xbe65021b	-0.22364084
130	0x3e84cc80	0.2593727
131	0x3e8dcca5	0.27695194
132	0xbe6a4b1c	-0.22880214
133	0x3e23b013	0.15985136
134	0xbf13fe51	-0.5780993
135	0x3f13c8d3	0.5772831
136	0x3db60d88	0.088893
137	0x3f9078c9	1.1286861
138	0x3f371581	0.7151719
139	0x3ec9fffb	0.3945311
140	0x3f9ad46a	1.2096074
141	0x3f54bdc4	0.8310206
142	0x3d57f64f	0.052725133
143	0xbe0d3866	-0.13791046
144	0x3e5c113b	0.21490948
145	0xbfa2d1da	-1.2720292
146	0x3d05e4f2	0.032689042
147	0x3f9be1d4	1.2178292
148	0xc09d3df9	-4.913815
149	0xbe55d9c0	-0.20883846
150	0x3fb1b979	1.3884727
151	0xbf0c7155	-0.5486043
152	0x3f9fa786	1.2472999
153	0x3f14d613	0.5813915
154	0xbe8e52b0	-0.2779746
155	0xbedbc94e	-0.4292702
156	0x3ec757d6	0.389342
157	0xbf2235f5	-0.6336358
158	0xbf974462	-1.1817744
159	0x3fa11b27	1.2586411
160	0x3fa0f7f6	1.2575672
161	0x3ead58b2	0.33856732
162	0xbe1dedfc	-0.15422815
163	0x3e76f5f1	0.24117257
164	0x4014d663	2.3255851
165	0xbf74ee79	-0.9567638
166	0xbfac4d13	-1.3461021
167	0xbf4a1eb7	-0.7895312
168	0x3f0f5a53	0.559972
169	0xbe94397b	-0.28950104
170	0xbf7fa027	-0.9985375
171	0xbcbbc644	-0.022921689
172	0xbd7bddd8	-0.061490864
173	0xbf28f169	-0.6599336
174	0x3cb1723b	0.021660915
175	0x3e22b206	0.15888223
176	0xbed4b03d	-0.4154071
177	0x3ea40efd	0.32042685
178	0x3fa0f873	1.2575821
179	0x3f302909	0.68812615
180	0x3edf432e	0.43605942
181	0xbf94ce51	-1.1625463
182	0xc0014ccd	-2.0203125
183	0x3fb03635	1.3766543
184	0xbe0fc435	-0.14039691
185	0xc0048966	-2.0708861
186	0x3f8ba4e4	1.0909696
187	0x3e978ef9	0.29601267
188	0xbfaf5dd4	-1.3700509
189	0xc00a596b	-2.1617076
190	0xbf17fba7	-0.59368366
191	0x3fee1a43	1.8601764
192	0xbf23580b	-0.6380622
193	0xbf1f45a0	-0.62215614
194	0xbfa45797	-1.283923
195	0xbef6a209	-0.48170498
196	0x3e97b747	0.29632017
197	0xbf32fa05	-0.6991275
198	0x3f02b12a	0.5105158
199	0x3da5b80e	0.08091746
200	0x3f1735f1	0.59066683
201	0xbf93add9	-1.1537429
202	0xbf66c7e6	-0.9014877
203	0x401c22c4	2.439622
204	0xbe8f7ad6	-0.28023404
205	0xbf0415ab	-0.5159556
206	0x3fa6e89c	1.3039737
207	0x3e93b419	0.2884834
208	0x3e4da66d	0.20083018
209	0xbdbbed94	-0.09176174
210	0x3d807a75	0.06273357
211	0x3e021b47	0.12705718
212	0xbe01a1ae	-0.12659332
213	0x3da25a42	0.079273716
214	0xbcffdfdb	-0.031234672
215	0xbd40caf2	-0.047068544
216	0xbe4eeb06	-0.20206842
217	0xbfccfa75	-1.6013933
218	0x3ec66e2a	0.38755924
219	0xbda9dd57	-0.0829417
220	0x407b2a4c	3.9244566
221	0xbca2daf1	-0.01987979
222	0xbfa9e633	-1.3273376
223	0x3fb55b34	1.4168458
224	0x3ee7c390	0.4526639
225	0x3fd3e5a7	1.6554459
226	0xbf1a6f52	-0.6032611
227	0xbf90b366	-1.1304748
228	0x3fe4b389	1.786729
229	0x3f125151	0.5715533
230	0xbfc9d564	-1.5768247
231	0x3f2acad4	0.6671574
232	0x3ee76c55	0.45199838
233	0xbfb5dca3	-1.4207958
234	0x3e32f0ce	0.17474672
235	0xbdc07512	-0.093973294
236	0xbf44f8c7	-0.76942104
237	0xc000da3f	-2.0133207
238	0xbf6eec9e	-0.933298
239	0xbff7ac86	-1.9349525
240	0xc04c039b	-3.18772
241	0xbfc3c4bc	-1.5294414
242	0x3f46544d	0.7747238
243	0x3ee65f1b	0.44994435
244	0x3ecf6801	0.40509036
245	0x3fdd69ca	1.7297909
246	0xbe00ae5f	-0.12566517
247	0x3ec98b1e	0.3936395
248	0x401f1d06	2.4861465
249	0x3f19b14e	0.6003617
250	0xbf64107f	-0.8908767
251	0x3f9c9460	1.223278
252	0x3f583cd0	0.8446779
253	0xbef3f165	-0.47645107
254	0x3ffe9c46	1.9891441
255	0xbf77bd00	-0.96772766

layer1.0.bn1.weight f4 [16]
0	0x3f974caa	1.1820271
1	0x3fea61ed	1.8311135
2	0x3f9f41dc	1.2441974
3	0x40282fc2	2.627915
4	0x3fbca59e	1.4738042
5	0x3fd9661b	1.6984285
6	0x3fad5a0a	1.3543103
7	0x3f9e464f	1.2365206
8	0x404dd567	3.21615
9	0x3fa1a40c	1.2628188
10	0x3fd44bbe	1.6585615
11	0x3f64b1b3	0.8933365
12	0x3fc98f5a	1.5746872
13	0x3ffe2333	1.9854492
14	0x4012c2fd	2.2931511
15	0x3f7a29e9	0.977202

layer1.0.bn1.bias f4 [16]
0	0xbf2e5d7a	-0.68111384
1	0x3fd5103a	1.6645577
2	0xbd8b8973	-0.06813326
3	0x3f320185	0.6953357
4	0xbed9422a	-0.42433292
5	0x3e2afb55	0.16697438
6	0x3f5502d1	0.8320742
7	0xbf28b6d6	-0.65903986
8	0x40c1a4d7	6.051372
9	0xbf4e3c5e	-0.80560863
10	0x3d62418a	0.055238284
11	0x3c8f875c	0.017520599
12	0xbf439405	-0.76397735
13	0x3f66eb56	0.90202844
14	0x3e7ecafb	0.24882118
15	0x3efcdf73	0.49389228

layer1.0.bn1.running_mean f4 [16]
0	0x41b8e93e	23.113888
1	0xc1ad3c03	-21.654303
2	0x421bb930	38.930847
3	0xc227c7f7	-41.94528
4	0xc244c0cd	-49.188282
5	0xc0883f15	-4.2577004
6	0xc2828be8	-65.273254
7	0xc1dddc62	-27.732609
8	0xc1812486	-16.142834
9	0xc2802444	-64.07083
10	0xc15cbe4f	-13.796462
11	0xc293c60b	-73.8868
12	0x42c10a89	96.52058
13	0x41b9f3ea	23.244099
14	0xc1570ff6	-13.441397
15	0xc288b97c	-68.362274

layer1.0.bn1.running_var f4 [16]
0	0x450dff7d	2271.968
1	0x44850b1e	1064.3474
2	0x44dc9674	1764.7017
3	0x44589c95	866.4466
4	0x448f275a	1145.2297
5	0x44a8a0b0	1349.0215
6	0x449106e2	1160.2151
7	0x44c3e0ee	1567.029
8	0x43c5926f	395.144
9	0x44bffb2e	1535.8494
10	0x44a3e44c	1311.1343
11	0x44631073	908.257
12	0x44c495bd	1572.6793
13	0x445ffff5	895.9993
14	0x4467dd5f	927.4589
15	0x4492a124	1173.0356

layer1.0.conv2.weight f4 [16, 16, 3, 3]
0	0xbfdab8d0	-1.708765
1	0xbefd9755	-0.4952952
2	0x3efca87e	0.493473
3	0x3e8a0871	0.26959565
4	0x3f0bfd5d	0.54683477
5	0x3db769b8	0.08955711
6	0xbe7fdb89	-0.2498609
7	0xbf23e51d	-0.64021474
8	0xbed7c3fb	-0.4214171
9	0xbf01ec0f	-0.5075082
10	0x3f0f0348	0.5586438
11	0x3f253f48	0.64549685
12	0xbf1ec06c	-0.6201236
13	0xc0812d4c	-4.0367794
14	0x3fe0f630	1.757513
15	0x3e83e046	0.25757045
16	0xbf42740d	-0.7595833
17	0x3face687	1.3507851
18	0x3eda0d2d	0.42588177
19	0x3fb5bd38	1.419837
20	0xbdbbe6f7	-0.091749124
21	0xbf196aec	-0.59928775
22	0x3e287f35	0.16454776
23	0x3ff833cb	1.9390806
24	0xbfb801c1	-1.4375535
25	0x3e927e87	0.28612158
26	0x3f8a02bf	1.0782088
27	0x3fb8e241	1.4444047
28	0xbfe8f827	-1.820073
29	0x3ee03b97	0.43795463
30	0x3ff863e9	1.940549
31	0x3fbe7b2f	1.4881343
32	0xc016151f	-2.3450391
33	0xbf72c280	-0.94828033
34	0x3fd11170	1.6333447
35	0xbff7162d	-1.9303643
36	0x3fb828ed	1.438749
37	0x3f18481e	0.5948504
38	0x3eac2bd3	0.33627185
39	0x3f08d245	0.53445846
40	0xbe60924a	-0.21930805
41	0x3e7ab211	0.2448199
42	0x3cbdd5d7	0.023173256
43	0xbf9dbe4c	-1.2323699
44	0xbee21acd	-0.44161072
45	0x3ea0a1d6	0.3137347
46	0xbee4f890	-0.44720888
47	0xbf232308	-0.6372533
48	0x3d1257c7	0.035728242
49	0x3f0a5e59	0.54050213
50	0xbf96cec8	-1.1781855
51	0xbf09b062	-0.53784764
52	0x3f7f29ce	0.99673164
53	0xbff2e43d	-1.8975903
54	0x3f637a5b	0.88858575
55	0x3f3c0182	0.734398
56	0xbcc32738	-0.023822412
57	0x3e3cc192	0.18433216
58	0x3ff70a90	1.9300098
59	0x40214f6f	2.5204732
60	0x3e20d1e6	0.1570507
61	0x3f16f7b0	0.5897169
62	0x3fbf50ef	1.4946574
63	0x3f1fe8c0	0.62464523
64	0x3ff9b352	1.9507849
65	0x3f2cc90d	0.6749428
66	0x3ea17710	0.3153615
67	0xbf5b49a1	-0.85659224
68	0x400c35b1	2.190777
69	0x3f80caa0	1.0061836
70	0xbfae13d9	-1.3599807
71	0x3f6372bb	0.8884694
72	0xbe6f4811	-0.23367335
73	0xc01878ae	-2.3823657
74	0x3fcb2fd0	1.5873966
75	0xbe9b8ebf	-0.30382344
76	0x409b5265	4.853808
77	0xc04869f3	-3.1314666
78	0xbeb132c0	-0.34609032
79	0xbe98c922	-0.29840952
80	0xc00a01ee	-2.1563678
81	0x3fabb18f	1.3413562
82	0xbf5f2301	-0.87162787
83	0xbf0d50f5	-0.55201656
84	0x3fd5019f	1.664112
85	0xbf3a7f6e	-0.7285069
86	0xbfc8358c	-1.5641341
87	0xbead58d1	-0.33856824
88	0xbeceb75a	-0.4037426
89	0xbe54a18a	-0.20764747
90	0xbf5e65ec	-0.8687427
91	0xbd77f006	-0.06053164
92	0x3f82fbd0	1.0233097
93	0xbf3ed381	-0.7454148
94	0xbfd97ef7	-1.6991872
95	0x3ed74ec4	0.4205228
96	0x40059d66	2.0877318
97	0xbb4d913f	-0.003136709
98	0x3f572ce1	0.84052855
99	0xbf0c835a	-0.54887927
100	0xbf0225c1	-0.5083886
101	0xbf0a538d	-0.5403374
102	0x3f37a087	0.7172932
103	0xbeadcbf7	-0.33944675
104	0xbd66d114	-0.056351736
105	0xbdeabf64	-0.11462286
106	0x3fcf6545	1.620278
107	0x3f5d58cf	0.86463636
108	0x40001d5e	2.0017924
109	0x3f7cad89	0.98702294
110	0xbf2be33b	-0.671436
111	0x3f663197	0.8991942
112	0xbede171e	-0.43377012
113	0xbf4821b1	-0.7817641
114	0x3ed1d4c6	0.40982646
115	0xbd6ea636	-0.05826398
116	0xbefd5f0b	-0.49486575
117	0xbfcf0f13	-1.6176475
118	0x3dbdbe16	0.09264772
119	0x3f8b6520	1.0890236
120	0xbf031a27	-0.5121178
121	0xc04adb20	-3.1696243
122	0x3ece48d4	0.40289938
123	0x3fbc429a	1.4707825
124	0x3fabbde8	1.341733
125	0xbe6189df	-0.2202525
126	0xbfad6160	-1.3545341
127	0x3e6da39e	0.23206946
128	0x3f9eb223	1.2398113
129	0xbefc0166	-0.49219817
130	0x400d00e3	2.2031791
131	0x400e52b7	2.2237985
132	0xbdc45e01	-0.09588242
133	0x3b755159	0.003743252
134	0xbfacb6be	-1.3493268
135	0x3fadb57f	1.3571013
136	0x3f9b691f	1.2141455
137	0x3fb84ae2	1.4397852
138	0x3e222fc4	0.15838534
139	0xbdcd073b	-0.10011145
140	0x3f3f7d83	0.7480089
141	0x3f812382	1.0088961
142	0x3fd787e5	1.6838347
143	0x3fad6fe5	1.3549773
144	0xbfe2944f	-1.770151
145	0xbe21b430	-0.15791392
146	0x3f89884d	1.0744721
147	0xbc59ec5d	-0.013300982
148	0x3eee12b2	0.46498638
149	0x3f945a0e	1.1589983
150	0xbf72de78	-0.9487071
151	0xbfb14cea	-1.3851597
152	0xbfc601c8	-1.5469294
153	0x3eba5441	0.36392406
154	0xbfcadc0f	-1.5848407
155	0xbf08f051	-0.53491694
156	0xbf574234	-0.8408539
157	0xbfde8888	-1.7385416
158	0xbf9168d8	-1.1360121
159	0xbe6b8aea	-0.2300221
160	0xbf4d060d	-0.8008736
161	0x3f73d0ff	0.9524078
162	0xbf24c2cc	-0.64359736
163	0xbedffbe3	-0.43746862
164	0xbdbb620c	-0.0914956
165	0x3e30ce07	0.17266093
166	0xbe4e034e	-0.20118448
167	0xbf14932a	-0.58037055
168	0xbcff25e4	-0.031145997
169	0x3e12b0ab	0.14325206
170	0x3e7549f5	0.23953994
171	0xbfdde515	-1.7335535
172	0xbfbd4a94	-1.4788384
173	0x3f6e5ab6	0.93107164
174	0xbfbc3a1a	-1.4705231
175	0xbef80ffa	-0.4844969
176	0x3fb1cd04	1.3890691
177	0xbfdab1b3	-1.708548
178	0x3f20515c	0.62624145
179	0x401c76d7	2.4447534
180	0x3f44b584	0.7683947
181	0xbd1d0736	-0.038336955
182	0xbe4c5b9e	-0.19956824
183	0x400975b3	2.1478088
184	0x3f2f432a	0.6846186
185	0x3f6c6349	0.92339
186	0x401efe87	2.484285
187	0x3f9ce4a1	1.2257272
188	0x400863e8	2.1310978
189	0xbfb0c243	-1.3809284
190	0xbf4f123f	-0.80887216
191	0xbf5d783e	-0.865116
192	0x3ea043cb	0.31301722
193	0x3ff1945f	1.8873404
194	0x3fa3720a	1.2769177
195	0x3f9eaedf	1.2397116
196	0x403d09cf	2.9537237
197	0x3ff8d1ae	1.9438989
198	0xbdab9339	-0.0837769
199	0xbef3fbdf	-0.476531
200	0x3e96ba7a	0.29439145
201	0xbfbd2e11	-1.4779683
202	0xbfc4fd19	-1.5389739
203	0x3da4e182	0.08050825
204	0xbfcc1bb5	-1.5945956
205	0xbf98ec2f	-1.1947078
206	0x3f582812	0.8443614
207	0xbf0eb970	-0.55751705
208	0xbf4a61af	-0.79055303
209	0xbf3b14ae	-0.7307843
210	0x3f366682	0.71250165
211	0xbe4e610f	-0.20154212
212	0xbf56ba53	-0.8387806
213	0x3ffc6286	1.9717567
214	0x3fbb638d	1.4639755
215	0x3fdc6d8a	1.7220929
216	0xbfb71ed9	-1.4306289
217	0xbfb1feeb	-1.390592
218	0xbffb0f4b	-1.9614042
219	0xbfd277d1	-1.6442815
220	0xbfd705fc	-1.6798701
221	0x3ed6a9be	0.41926378
222	0x3f5f1faf	0.8715772
223	0x3eaac5c5	0.3335401
224	0x3f5af505	0.8553012
225	0xbee18459	-0.44046286
226	0xbfa0964b	-1.2545866
227	0xbf4ab2a3	-0.7917883
228	0xbfb9b1f8	-1.4507437
229	0x3e89e234	0.26930392
230	0x3fd05dee	1.6278665
231	0xbfcfebb2	-1.6243804
232	0xbff107ef	-1.8830546
233	0x3b0eafb9	0.002177222
234	0xbee6b853	-0.45062503
235	0xbf8b1564	-1.0865903
236	0xc00c93d7	-2.1965234
237	0xbfe77bf7	-1.8084706
238	0xbf9fa89b	-1.2473329
239	0xc020d404	-2.5129404
240	0xc02feffc	-2.7490225
241	0xbfefce80	-1.8734894
242	0xc042f70e	-3.046329
243	0xbd4f1dad	-0.05056541
244	0xbf7489e2	-0.9552289
245	0xbfa74375	-1.3067461
246	0x3e0d43c3	0.1379538
247	0xbf879282	-1.0591586
248	0xc02dd756	-2.716268
249	0xbe083cd1	-0.1330445
250	0xc01ffe8c	-2.4999113
251	0xc09c5561	-4.885422
252	0xbf5d5f8b	-0.8647391
253	0xbd35497d	-0.044259537
254	0xbe9e4a24	-0.3091594
255	0xbea6d020	-0.32580662

layer1.0.bn2.weight f4 [16]
0	0x40402f85	3.0029004
1	0x3f9121f4	1.1338487
2	0x3f5b3ff8	0.85644484
3	0x3fc1006f	1.5078257
4	0x3f520849	0.8204389
5	0x3fcce188	1.6006327
6	0x405e8da7	3.4773958
7	0x3f93ecc8	1.1556635
8	0x40457fd4	3.085927
9	0x3f988374	1.1915116
10	0x3fb6f06f	1.4292125
11	0x3fce4bfe	1.6116941
12	0x401b9cff	2.4314573
13	0x3eadc427	0.33938715
14	0x3fbf5116	1.494662
15	0x3fb9db1a	1.451999

layer1.0.bn2.bias f4 [16]
0	0xbef796fd	-0.48357382
1	0xbf81e27f	-1.0147246
2	0xbd6b1cb0	-0.057400405
3	0x3d8f64d9	0.07001657
4	0x3f7e90de	0.994398
5	0xbedbc9e6	-0.42927474
6	0xbf6fa099	-0.9360443
7	0x3eba82b9	0.36427858
8	0x3f2ac7ee	0.6671132
9	0xbf4078f1	-0.7518454
10	0xbfe542e4	-1.7911038
11	0x3f48e126	0.7846855
12	0x3f15a7fc	0.5845945
13	0xbe728f96	-0.23687586
14	0xbfbb4b22	-1.4632304
15	0x3f30cbf5	0.69061214

layer1.0.bn2.running_mean f4 [16]
0	0xbeee2782	-0.46514517
1	0xc2643ed0	-57.06134
2	0xbf15033f	-0.5820808
3	0xc210222d	-36.033375
4	0x41e0c0b0	28.094086
5	0xc0a3b7f0	-5.1162033
6	0xc1c16066	-24.17207
7	0xc217e2b6	-37.971397
8	0x412b0999	10.689843
9	0xc21f5273	-39.830517
10	0x42335211	44.830143
11	0xc1617d26	-14.093054
12	0xc11d2937	-9.822562
13	0x41046403	8.274417
14	0x416698ee	14.412336
15	0xc20466b3	-33.100292

layer1.0.bn2.running_var f4 [16]
0	0x4497ef99	1215.4874
1	0x4423a07f	654.50775
2	0x44cf32d4	1657.5884
3	0x449e9714	1268.7212
4	0x44ee1166	1904.5437
5	0x447660b0	985.51074
6	0x44b3b80d	1437.7516
7	0x44881413	1088.6273
8	0x44670a72	924.1632
9	0x44121628	584.3462
10	0x4473ed34	975.7063
11	0x44ecd5a6	1894.6765
12	0x4473574d	973.3641
13	0x448dce41	1134.4454
14	0x444cf342	819.8009
15	0x44972bbf	1209.3671

layer1.1.conv1.weight f4 [16, 16, 3, 3]
0	0x3edc7118	0.43055034
1	0xbf9e3b74	-1.2361894
2	0x3eae1048	0.33996797
3	0xbf29dce2	-0.66352665
4	0xc0129352	-2.2902417
5	0xc05a10d0	-3.4072762
6	0xbe1c9f0c	-0.15295047
7	0xbfccdce4	-1.600491
8	0xc007cc5d	-2.1218483
9	0x3df5f407	0.12009435
10	0xbf692a55	-0.9108022
11	0xbc38e1c2	-0.011284294
12	0xbf2f39a9	-0.6844736
13	0xbf98077c	-1.1877284
14	0xbd093f20	-0.033507466
15	0xbfd2c976	-1.6467731
16	0xbfffe283	-1.9991001
17	0xbfaeb977	-1.3650349
18	0xbe9b7c0d	-0.3036808
19	0x3f604839	0.87610203
20	0x3fa5b2d3	1.2945198
21	0x3ed316aa	0.4122823
22	0x3f962e42	1.1732867
23	0x3fc982e4	1.574307
24	0x3f78114c	0.9690139
25	0x3f4b27b6	0.7935747
26	0xbdd2984b	-0.10282954
27	0xbf7884a5	-0.970774
28	0x3d2a0211	0.041505877
29	0x3f49d44f	0.7883958
30	0xbede7fe5	-0.4345695
31	0x3f0aa40e	0.5415658
32	0x3f0d6a8c	0.552407
33	0xbf7496b5	-0.9554246
34	0xbf957c64	-1.1678586
35	0xc00277ab	-2.038554
36	0xbe6b3e5f	-0.22973011
37	0xbee5e9f6	-0.4490506
38	0x3f52d7d9	0.8236061
39	0x3f941cc2	1.1571276
40	0x3f23867a	0.6387707
41	0x3f88c454	1.0684915
42	0x4005994a	2.087481
43	0x3f880a23	1.0628093
44	0x3f246a32	0.6422454
45	0xbbf3bba9	-0.0074381423
46	0xbf91036a	-1.1329167
47	0xbe1d2bd7	-0.15348755
48	0x3f306231	0.6889983
49	0xc0017fe4	-2.0234308
50	0xbdcfe82f	-0.101517074
51	0x3e670d74	0.22563726
52	0xbeb5952f	-0.3546538
53	0x3dae299c	0.0850403
54	0xbc2dc370	-0.010605678
55	0xbec422c8	-0.38307786
56	0xbf84edf3	-1.0385116
57	0x3f815cad	1.0106407
58	0x3f36d742	0.7142221
59	0xbc156460	-0.00911817
60	0x3f687392	0.90801346
61	0xbf59af57	-0.8503317
62	0xbf52ea80	-0.8238907
63	0x3ec81e2a	0.39085513
64	0x3fd56767	1.6672181
65	0x403bda20	2.9351883
66	0x3fb45598	1.4088621
67	0x3fe6d1c9	1.8032771
68	0x3fdb240a	1.7120373
69	0x40251037	2.5791147
70	0x3fc4708e	1.5346849
71	0x3fda8582	1.7071993
72	0x3f1b5665	0.606787
73	0x3f4d04a9	0.80085236
74	0xbe53c1f7	-0.2067946
75	0x4060e378	3.5138836
76	0x3f1179b3	0.56826323
77	0x3e9860ad	0.29761258
78	0x3ebbeac9	0.36702564
79	0xbeef3835	-0.4672257
80	0x3d6329de	0.05545985
81	0xbeaa9379	-0.33315638
82	0xbe8221d9	-0.2541645
83	0x3d90d663	0.07072141
84	0xbf064b42	-0.52458584
85	0xbec28a21	-0.3799601
86	0xbeb664b7	-0.35623714
87	0xbf1266f7	-0.5718836
88	0xbead2ae8	-0.33821797
89	0xbcc96d3c	-0.02458822
90	0x3eb1b19f	0.34705827
91	0xbeafe984	-0.34357846
92	0xbfb3c93d	-1.4045788
93	0x3ee6c94e	0.45075458
94	0xbf57d00a	-0.8430182
95	0xbfc313e1	-1.5240442
96	0xbda87e8e	-0.082272634
97	0x3f6bea2a	0.9215418
98	0x3f29c799	0.66320187
99	0x4028b0c5	2.6357892
100	0x3f93ac7e	1.1537015
101	0x3e350788	0.17678654
102	0x407c2e57	3.9403284
103	0x3fa20bd7	1.2659863
104	0x3f7df175	0.9919656
105	0x40248c8f	2.571079
106	0x3e5bf5f5	0.21480544
107	0xbf6de666	-0.92929685
108	0x3fa5efbc	1.2963786
109	0xbf0fd4e4	-0.5618422
110	0xbdf0b0b9	-0.11752457
111	0x3fc69349	1.5513698
112	0x3f52f75d	0.82408696
113	0x4000c523	2.0120323
114	0x3eae6817	0.3406379
115	0xbd90a8e0	-0.0706346
116	0x3fae7491	1.3629323
117	0xbfbeb003	-1.4897465
118	0xbfdcba7c	-1.724441
119	0x3d000904	0.031258598
120	0xbff78194	-1.9336419
121	0xbfed3000	-1.8530273
122	0x3cac39d3	0.021023666
123	0xbfeabd6a	-1.8339055
124	0xbfb018b0	-1.3757534
125	0xbe9605e7	-0.29301378
126	0x3e04f224	0.12982994
127	0xbe7192e8	-0.23591197
128	0x40020570	2.0315819
129	0x3d16c624	0.036810055
130	0xc00bef79	-2.1864913
131	0xc0312a6e	-2.7682147
132	0xbef75b57	-0.48311874
133	0xc02e3125	-2.7217495
134	0xc036667a	-2.8500047
135	0x3fe8e0c7	1.8193597
136	0x3ef56584	0.47929013
137	0xc024e7e6	-2.576654
138	0xbdf71606	-0.120647475
139	0xc00ea561	-2.228844
140	0xc023694f	-2.5533025
141	0xbfc18312	-1.5118124
142	0xbf9dac64	-1.2318234
143	0xbfe5b105	-1.7944647
144	0xbf1689b3	-0.5880386
145	0xbfb055eb	-1.377622
146	0xbe3d61b8	-0.18494308
147	0xbe8816fb	-0.26580033
148	0xbf6d4e08	-0.9269719
149	0xbf476666	-0.7789062
150	0x3feef1e8	1.8667574
151	0x3f2b40ca	0.66895735
152	0xbd852321	-0.06500841
153	0xbecefab0	-0.40425634
154	0xbed7b5cd	-0.4213089
155	0xbf16f0af	-0.58961004
156	0x3f1d3cd2	0.6142093
157	0x3ea20567	0.31644747
158	0x3db9715f	0.09054827
159	0xbfa2a399	-1.2706176
160	0xbfc3fe00	-1.531189
161	0xbfca6b7a	-1.5814049
162	0xbf75d159	-0.96022564
163	0xbf84b22c	-1.0366874
164	0xbf919f21	-1.1376687
165	0x3e253a2d	0.16135474
166	0x3f11b2ac	0.56913257
167	0x3e60db45	0.21958645
168	0xbfaa3f5f	-1.3300589
169	0xbfa7ef34	-1.3119874
170	0xbfa7a8be	-1.3098371
171	0x3fc9d887	1.5769204
172	0x3f92f3ee	1.1480691
173	0x3f271a6d	0.652747
174	0x3f86a5d6	1.0519359
175	0x3f8f4bbb	1.1194986
176	0x3f7390f0	0.9514303
177	0xbfdd4398	-1.7286253
178	0xbfe76c01	-1.8079835
179	0xbfaf2d88	-1.368577
180	0x3f9a2216	1.2041652
181	0x3f524ae8	0.8214555
182	0x3f458a3d	0.7716406
183	0x3da00e38	0.07815212
184	0xbe995744	-0.2994939
185	0xbeca49bd	-0.39509383
186	0xbfddbf68	-1.7324038
187	0xbfe577f9	-1.7927238
188	0xbfbdd62d	-1.4830986
189	0x3f9f0a03	1.242493
190	0x3e0f2699	0.13979568
191	0xbd89b544	-0.06724027
192	0x3f87d825	1.0612837
193	0x3f6f0ab8	0.9337573
194	0x3f50d0c9	0.8156858
195	0xbf8f6f4e	-1.1205842
196	0xbff7d31d	-1.9361302
197	0xbfafa448	-1.372201
198	0x3ea31249	0.31849888
199	0xbf6952ac	-0.9114177
200	0x3efa4848	0.4888327
201	0x3efbf277	0.49208423
202	0x400158bc	2.021041
203	0x3fb4743c	1.4097972
204	0x3e798719	0.24367942
205	0xbf222ecf	-0.63352674
206	0xbf73d3cb	-0.95245045
207	0xbf80a415	-1.0050074
208	0xbf767ec4	-0.9628718
209	0x3d5ae1a6	0.05343785
210	0xbf93cc53	-1.154673
211	0xbfa80a10	-1.3128071
212	0xbe24e0d1	-0.16101386
213	0x3fd6a50d	1.676912
214	0x3fc68bf6	1.5511463
215	0x400197d9	2.024893
216	0x3f4006ff	0.75010675
217	0x40113caf	2.2693288
218	0x3fc5ac85	1.5443274
219	0x400badaf	2.1824758
220	0x3fec4c3c	1.8460765
221	0x3fdfde5e	1.7489736
222	0xc06b65e9	-3.678095
223	0xc0be0ba6	-5.938922
224	0xc07d51a5	-3.9581082
225	0x3e9d74a3	0.3075305
226	0x3f45e5d2	0.773038
227	0x3f28a316	0.6587385
228	0xbe9f4f80	-0.3111534
229	0xbe85b4cf	-0.26114509
230	0xbe5bb028	-0.21453917
231	0x3fe97dd3	1.8241524
232	0x3eb8c982	0.36091238
233	0x3f0d2b14	0.55143857
234	0x3f00cafc	0.5030973
235	0x3dcee9c2	0.101031795
236	0xbf20b7ac	-0.6278026
237	0xbf865861	-1.0495721
238	0xbf38391e	-0.71962154
239	0x3f8cae71	1.0990735
240	0xbec0767a	-0.3759039
241	0x3f1810c3	0.59400576
242	0x3e4742ef	0.19459127
243	0xbecdb9b3	-0.4018074
244	0x3f18595f	0.5951137
245	0xbea8b288	-0.3294871
246	0xbe767d9c	-0.24071354
247	0x3e820b56	0.25399274
248	0x3d7d0084	0.06176807
249	0x3d81dfa6	0.06341486
250	0x3f5e03ae	0.86724365
251	0x3fbc598d	1.4714829
252	0xbe17492f	-0.14774011
253	0xbf83a549	-1.0284816
254	0xc0282adb	-2.6276157
255	0xbfc5570f	-1.5417193

layer1.1.bn1.weight f4 [16]
0	0x3fa77337	1.3082036
1	0x401221ca	2.2833123
2	0x3f9e1247	1.2349328
3	0x3faa5532	1.330725
4	0x3fbe4829	1.4865772
5	0x402b92ae	2.6808276
6	0x401d88a2	2.4614644
7	0x3fab872d	1.3400627
8	0x40452c06	3.080812
9	0x3e3ea4ef	0.18617605
10	0x3fb6ede0	1.4291344
11	0x3fed281f	1.8527869
12	0x3e0ac164	0.13550335
13	0x400cad2f	2.1980703
14	0x402b96d1	2.68108
15	0x400344d9	2.0510771

layer1.1.bn1.bias f4 [16]
0	0xbf37b7fa	-0.717651
1	0xbef0a86c	-0.47003496
2	0xbfe90fe7	-1.8207978
3	0xbf15971c	-0.584337
4	0xbf6d9388	-0.9280324
5	0x40074424	2.113534
6	0xbf23f855	-0.640508
7	0x3f21aef6	0.63157594
8	0x3fbfda6c	1.4988532
9	0xbf38a2ad	-0.72123224
10	0xbfde9402	-1.7388918
11	0xbf9b5a54	-1.2136941
12	0xbf3222fc	-0.6958463
13	0xbe416c11	-0.1888888
14	0xbef99595	-0.48746935
15	0xbeb8611f	-0.36011598

layer1.1.bn1.running_mean f4 [16]
0	0x41cf3875	25.902567
1	0xc1e00aa3	-28.005194
2	0x4236f665	45.74062
3	0xc0c65fb8	-6.1991844
4	0xc2714f8d	-60.327686
5	0xc25cce7a	-55.201637
6	0xc2418496	-48.37948
7	0xc2f0825b	-120.2546
8	0xc260ea38	-56.22873
9	0xc229690a	-42.352577
10	0x421d477c	39.31981
11	0x4025d3f6	2.591062
12	0xc1949a02	-18.5752
13	0xc23f9273	-47.893017
14	0xc1e43d31	-28.529879
15	0xc2fe8f8c	-127.280365

layer1.1.bn1.running_var f4 [16]
0	0x454c8342	3272.2036
1	0x45af9259	5618.2935
2	0x450fe230	2302.1367
3	0x452ab437	2731.2634
4	0x451bb8f2	2491.559
5	0x452246fc	2596.4365
6	0x45991dcb	4899.724
7	0x453e2bbc	3042.7334
8	0x458f68aa	4589.083
9	0x4386974f	269.1821
10	0x45003477	2051.279
11	0x456e54b3	3813.2937
12	0x446c2c35	944.69073
13	0x45d11f39	6691.903
14	0x45aed302	5594.376
15	0x45808c16	4113.5107

layer1.1.conv2.weight f4 [16, 16, 3, 3]
0	0xbfa5022b	-1.2891287
1	0xbe73a143	-0.23791985
2	0x3fb0a494	1.3800225
3	0xbf45fd7f	-0.7733993
4	0x3f5f6008	0.8725591
5	0x3eee2cd1	0.46518567
6	0xbfc53625	-1.5407149
7	0x401d38de	2.456596
8	0x3f76f430	0.9646635
9	0xbf4af3a1	-0.79278
10	0xbfc747f4	-1.5568833
11	0xc00ece7e	-2.2313533
12	0xbfa671e7	-1.300351
13	0xbe2f95e8	-0.17147028
14	0x3f2075f3	0.62679976
15	0xc0021271	-2.0323756
16	0x3ccbfadf	0.024899898
17	0xbd5a2c36	-0.05326482
18	0xbe870803	-0.263733
19	0x3fda6fee	1.7065408
20	0x3eeb17a2	0.45916468
21	0xbe9d4aaf	-0.30721042
22	0xbec99d2b	-0.39377722
23	0xbf0cc972	-0.5499488
24	0x3f8c0f69	1.0942203
25	0xbf2089ea	-0.6271044
26	0xc0306c03	-2.7565925
27	0x3e6622d3	0.22474222
28	0x3faffbfa	1.3748772
29	0xbf986aa5	-1.1907545
30	0xbf07c368	-0.5303254
31	0x40573244	3.362443
32	0x3f258e3f	0.64670175
33	0x3c5e530c	0.013569605
34	0xbf801b96	-1.0008419
35	0xbf1161cb	-0.56789845
36	0xbfde8c74	-1.7386613
37	0x3f255fc1	0.64599234
38	0x3f3da6a3	0.7408239
39	0xbf64674a	-0.89220107
40	0x3f408a85	0.75211364
41	0x3ffd5790	1.9792347
42	0x405ff8ec	3.499568
43	0x3fa65d28	1.2997179
44	0x3f3d3f42	0.7392465
45	0x400df75a	2.2182221
46	0xc05a16ae	-3.4076343
47	0x3fd4ea70	1.6634045
48	0x3ed8f2b8	0.4237268
49	0x3fdedea3	1.7411693
50	0xc0241255	-2.563619
51	0xbfa626e8	-1.2980623
52	0x3f6502ea	0.8945757
53	0x3f839201	1.0278932
54	0xbe6636dc	-0.22481865
55	0xbf716eea	-0.94309866
56	0x3f8447ac	1.0334373
57	0xbc1cf720	-0.009580404
58	0x3ccec754	0.025241531
59	0xbc67b1ea	-0.014141539
60	0x3f6b07a6	0.91808546
61	0x3e8df7f7	0.27728245
62	0xbf71d56b	-0.94466275
63	0x400a061b	2.1566226
64	0x402c24f2	2.689755
65	0xbe7bffb6	-0.24609265
66	0xbfba2821	-1.4543496
67	0xbf945d85	-1.159104
68	0x40414f96	3.0204825
69	0x3f040dc0	0.5158348
70	0xbf8149e6	-1.0100677
71	0xbf9332bb	-1.1499857
72	0xbfafbd71	-1.3729688
73	0xc03885c6	-2.883165
74	0x3f83d75a	1.0300095
75	0x3e06f2dd	0.13178582
76	0x3e773317	0.24140583
77	0xbfb26a9b	-1.3938783
78	0xbe1fc292	-0.15601566
79	0x3fe90a31	1.8206235
80	0x40325cde	2.7869182
81	0x3eea9aa6	0.45821112
82	0x3ea45a59	0.3210018
83	0xbde432d9	-0.11142511
84	0x3e0a46d1	0.13503577
85	0x3d833b86	0.064078376
86	0x3e63b631	0.2223747
87	0x3e9b77be	0.30364794
88	0x3ed061d8	0.4069965
89	0x3e5511d2	0.20807579
90	0xbf9ddcf8	-1.2333059
91	0xbf580fb5	-0.8439897
92	0x3f9543ec	1.1661353
93	0xbf3e037e	-0.7422408
94	0x3efb22d0	0.49049997
95	0x3e5101e2	0.20410874
96	0x3e88103a	0.2657488
97	0xbe22bea9	-0.15893044
98	0xbfb5a3ef	-1.4190654
99	0xbfeeef51	-1.8666784
100	0xbf886552	-1.065592
101	0xbef068dd	-0.46955004
102	0xbd2275e0	-0.039663196
103	0xbe805052	-0.2506128
104	0x3d6ba05a	0.05752597
105	0xbf0e0d6e	-0.5548924
106	0xbfbe1494	-1.485003
107	0x3f243e78	0.6415782
108	0xbeb40c19	-0.3516548
109	0x3e9c6c44	0.3055135
110	0x3ebd7862	0.37005907
111	0x3eb6d5b8	0.3570993
112	0xbeb33cd7	-0.35007355
113	0x3ef1cdcd	0.47227326
114	0x3f115335	0.5676759
115	0x3e53400c	0.206299
116	0x3de60bba	0.112327054
117	0xbe754fbb	-0.23956196
118	0x3f05d7f2	0.5228263
119	0x3f19d7fd	0.60095197
120	0x3f0baed0	0.5456362
121	0x4008b03f	2.1357572
122	0x3f9a1307	1.2037057
123	0x3faee052	1.3662207
124	0x403ca145	2.947343
125	0x3f7ca900	0.98695374
126	0xbd99ed28	-0.07515937
127	0x3fd9215c	1.6963305
128	0xbf1c96b3	-0.6116745
129	0xbf2b84a6	-0.6699928
130	0xbe71248d	-0.235491
131	0x3ffd367a	1.978225
132	0x3ed4e498	0.41580653
133	0x3f8190d2	1.0122321
134	0xbebc5afa	-0.3678816
135	0x3f266166	0.6499237
136	0x3f2defc9	0.6794401
137	0xbfb23f06	-1.3925483
138	0xbf9b7a99	-1.2146789
139	0x3e201531	0.15633084
140	0x401f8b31	2.4928706
141	0x3f733fdd	0.9501932
142	0xbded7e9f	-0.11596417
143	0x3f802e4f	1.0014132
144	0x3ecbda0e	0.398148
145	0xbdf0fb95	-0.117667355
146	0xbf43a4ec	-0.76423526
147	0x3f125c99	0.5717254
148	0x3d98a273	0.0745286
149	0xbd3d5f80	-0.046233654
150	0x3ac90eea	0.0015339528
151	0x3f30bef4	0.6904137
152	0x3e9c9fb8	0.30590606
153	0x3f047df2	0.5175468
154	0x3f8152e5	1.0103422
155	0x3f083cfa	0.5321804
156	0xbe632173	-0.22180729
157	0xbeb48347	-0.35256407
158	0x3cd5699a	0.026051331
159	0xbdc93c3f	-0.09825944
160	0xbdb3a19d	-0.0877106
161	0x3e3f6426	0.18690547
162	0x3f72742b	0.9470851
163	0x3f9b585c	1.213634
164	0x3fc30c37	1.5238103
165	0xbe1a5999	-0.15073241
166	0x3fee6006	1.8623054
167	0x3ff135cc	1.8844543
168	0x3fbf3aa9	1.4939777
169	0x3fe88ca9	1.8167926
170	0x3ee99e00	0.45628357
171	0x3f650d61	0.8947354
172	0xbf2494a9	-0.6428934
173	0xbe2a598c	-0.16635722
174	0x3f8432e0	1.0328026
175	0x3f02a193	0.5102779
176	0x3f82c63d	1.0216748
177	0x3fad1b76	1.3524005
178	0x3ff9580d	1.9479996
179	0xbf4f2d8a	-0.8092886
180	0x3f92110d	1.1411453
181	0x3f039554	0.5139973
182	0xbd68b1fe	-0.05681037
183	0x3f5a1466	0.85187376
184	0x3fb23cf9	1.3924857
185	0x3e2855bd	0.16438957
186	0x3f0f024b	0.55862874
187	0x3fc7c99c	1.5608401
188	0xbeaaeb6e	-0.33382744
189	0xbf0cfbdc	-0.55071807
190	0xbfc461c3	-1.5342335
191	0x3f91c131	1.1387082
192	0x406f50f8	3.739317
193	0xbfc57834	-1.5427308
194	0x3f8cac22	1.0990031
195	0x40266bd3	2.600331
196	0xc0936fab	-4.6073813
197	0x3e2b2deb	0.16716735
198	0xbf50bae8	-0.81535196
199	0x3ebf53b8	0.3736856
200	0x3fed41ce	1.8535707
201	0x4032fa1b	2.7965152
202	0x3fc5c5f6	1.5451038
203	0x3f3a2ae6	0.7272171
204	0x3fd85be0	1.6903038
205	0xbf16c6d5	-0.58897144
206	0x3f32202d	0.69580346
207	0xbdddd9ff	-0.10832595
208	0x3fc281bd	1.5195843
209	0x3e93e329	0.28884247
210	0x3e9f4cea	0.31113368
211	0x3fa5902d	1.2934624
212	0xbe87fb63	-0.2655898
213	0x3fec46c8	1.8459101
214	0x3fed4eae	1.8539636
215	0xbe8a6b7c	-0.2703513
216	0xbf36ff5e	-0.7148341
217	0xbebfd9dc	-0.374709
218	0xbe0e815a	-0.13916531
219	0x3f0b73e4	0.5447371
220	0xbe3517a5	-0.17684801
221	0x3f94efc6	1.1635673
222	0xbfb50f07	-1.4145211
223	0xc013691c	-2.3032904
224	0x3fe31089	1.7739421
225	0xbca085b7	-0.01959501
226	0xbdf97881	-0.121811874
227	0xbe19718f	-0.14984725
228	0x3c3db5e7	0.011579013
229	0x3d96f07d	0.07370088
230	0xbdb336c8	-0.08750683
231	0xbd59bf1d	-0.053160775
232	0xbc7cdd59	-0.015433633
233	0xbe04de8c	-0.1297552
234	0x3f1a7113	0.6032879
235	0x3eea2a91	0.457356
236	0x3f41d238	0.75711393
237	0x3e6d8c5b	0.23198073
238	0x3e1b230e	0.15150091
239	0x3f3695fc	0.7132261
240	0xbdb8a24c	-0.09015331
241	0x3f771c10	0.96527195
242	0xbd29f5a2	-0.04149402
243	0xbfcaa536	-1.5831668
244	0xbfaee812	-1.3664572
245	0xbf50769d	-0.8143099
246	0x3dbf3623	0.09336498
247	0xbe39b1fe	-0.18134305
248	0xbf6b68e5	-0.9195693
249	0xbeb11616	-0.34587163
250	0xbed49462	-0.41519457
251	0xbf82c674	-1.0216813
252	0xbee1742f	-0.44033954
253	0x3d998339	0.07495732
254	0xbe219cc5	-0.15782459
255	0xbe3abcae	-0.18236038

layer1.1.bn2.weight f4 [16]
0	0x4045be8f	3.0897558
1	0xbd4ee3c8	-0.050510198
2	0x3f4cf23f	0.8005714
3	0x3fd9ead3	1.7024788
4	0x3e3eafc0	0.18621731
5	0x3fe353ef	1.775999
6	0x4013a748	2.307085
7	0x403128e7	2.7681215
8	0x402ad6b4	2.6693544
9	0x400d96af	2.212322
10	0x3fc4c3c5	1.5372244
11	0x40550bbd	3.3288414
12	0x404765dd	3.1155922
13	0x3f02fba5	0.5116523
14	0x3f154278	0.5830455
15	0x3f62c2f8	0.8857875

layer1.1.bn2.bias f4 [16]
0	0xc020810a	-2.507876
1	0x3e1d3a29	0.15354218
2	0x3f5d3698	0.8641143
3	0x3d7ab31a	0.06120596
4	0x3b4cea8e	0.0031267735
5	0x3e31eaaa	0.17374673
6	0xbea232bb	-0.3167933
7	0xbf0f265c	-0.55917907
8	0xc0619d75	-3.5252354
9	0x3f69af7b	0.91283387
10	0xbfc5548c	-1.5416427
11	0xbf6cf9f7	-0.92568916
12	0xbfbb59a6	-1.4636734
13	0x3d085a7d	0.03328942
14	0xbe858db4	-0.26084673
15	0x3f69a90c	0.9127357

layer1.1.bn2.running_mean f4 [16]
0	0x413a0b92	11.627825
1	0x415b7c5e	13.717863
2	0xc13240d4	-11.140827
3	0xc1f44503	-30.533697
4	0x40f1f4b4	7.561121
5	0xc1e5c5da	-28.721607
6	0x4120952b	10.036418
7	0xc20839e3	-34.05653
8	0x416909d5	14.5649
9	0xc1f41d63	-30.514349
10	0x3fb7f32c	1.4371085
11	0xc15bc419	-13.735375
12	0xbfc4ee81	-1.5385286
13	0x41a4f733	20.620703
14	0xc0616fc2	-3.5224462
15	0xc08a5cdf	-4.323837

layer1.1.bn2.running_var f4 [16]
0	0x4438de02	739.4689
1	0x444ef1f4	827.7805
2	0x43fcc449	505.53348
3	0x444d1247	820.2856
4	0x446f0e0a	956.21936
5	0x443c2d41	752.7071
6	0x444772ca	797.7936
7	0x44904635	1154.194
8	0x440ec4a7	571.0727
9	0x4489a97d	1101.2965
10	0x44104476	577.0697
11	0x44967561	1203.6681
12	0x44535e48	845.47314
13	0x44432d22	780.7052
14	0x43ec070e	472.0551
15	0x4413779a	589.8688

layer2.0.conv1.weight f4 [32, 16, 3, 3]
0	0x3eed287a	0.46319944
1	0xbef536f7	-0.47893497
2	0xbed1e814	-0.40997374
3	0x3fca1f57	1.5790814
4	0xbfea6da1	-1.8314706
5	0xbf833f93	-1.0253776
6	0xbfda2cfd	-1.7044979
7	0xc05c6cfa	-3.4441514
8	0xbfdce72f	-1.7258052
9	0x3f1759f9	0.5912166
10	0xbf71601e	-0.9428729
11	0xbf818daa	-1.0121357
12	0x3f943fef	1.1582011
13	0x3d6d69b5	0.05796214
14	0xbe398cf7	-0.1812018
15	0x3f8eb6ee	1.1149576
16	0xbf2c715d	-0.6736048
17	0x3e921d1e	0.2853784
18	0xbfee2f88	-1.8608255
19	0xbf95d2ac	-1.1704917
20	0xbfd51cf4	-1.6649461
21	0x40017276	2.0226111
22	0x40018769	2.0238898
23	0x3f2a61c8	0.6655545
24	0x4006325a	2.0968232
25	0x403d4bbb	2.9577472
26	0x3fd75cf4	1.6825242
27	0xbe053135	-0.13007052
28	0xbfa1a17e	-1.2627409
29	0xbed49572	-0.41520268
30	0x3fa6ad03	1.3021549
31	0x3ff0b5f0	1.8805523
32	0x40139c2d	2.3064072
33	0x3fd89b11	1.6922323
34	0x3e9ac90c	0.30231512
35	0xbf988369	-1.1915103
36	0xbfc6abce	-1.5521181
37	0xbebc7679	-0.36809137
38	0x3e4216a5	0.1895395
39	0xbf7d51cf	-0.98952955
40	0x3f0428b0	0.51624584
41	0x3f70944d	0.9397629
42	0xbf0fad2a	-0.561236
43	0x3e12a22e	0.14319679
44	0x3c61a701	0.013772727
45	0xc001f88e	-2.0307956
46	0xbf450773	-0.7696449
47	0xbf836984	-1.0266576
48	0x3f16be2b	0.58883923
49	0xbf28d2ce	-0.6594666
50	0xbec0b357	-0.37636825
51	0x3f153fd4	0.5830052
52	0x3efaef36	0.49010628
53	0xbf2d3800	-0.67663574
54	0x3ea7c71c	0.32769096
55	0xbfe2d20e	-1.7720354
56	0xc01da90d	-2.463443
57	0xc02d9bf8	-2.7126446
58	0xc00836ff	-2.1283567
59	0xbfc10d85	-1.5082251
60	0xc043b25c	-3.0577612
61	0xbfc36421	-1.5264932
62	0xbf8b33fd	-1.087524
63	0x3fae437e	1.3614347
64	0x3f981031	1.1879941
65	0x3f109499	0.5647674
66	0x3eab7c1e	0.3349313
67	0xbf2cca83	-0.6749651
68	0xbf1a1e70	-0.60202694
69	0x3eaea5b7	0.34110805
70	0xbf34489b	-0.7042329
71	0x3db32476	0.08747189
72	0x3e6f1bd3	0.23350458
73	0xbc8460b4	-0.016159393
74	0x3f0ed725	0.55797035
75	0xbea0c94f	-0.31403586
76	0x3da9ad18	0.08284968
77	0x3fcfcdce	1.6234682
78	0x3f2fca51	0.68668085
79	0x3faa84da	1.3321793
80	0xbe751807	-0.23934947
81	0xbe6c72fa	-0.23090735
82	0x3f327f73	0.6972572
83	0x3fbc3e40	1.4706497
84	0x3ef3cb01	0.47615817
85	0x3f841764	1.0319638
86	0x3fe57564	1.792645
87	0xbe21cf6a	-0.15801778
88	0x3e3fe23f	0.1873865
89	0xbf310f31	-0.69163805
90	0x3fecc109	1.849641
91	0x3fe7284b	1.8059171
92	0x3fd6e1f0	1.6787701
93	0x3e2f655e	0.17128512
94	0xbf181343	-0.5940439
95	0xbfd6b1fb	-1.6773065
96	0xbfbef4c6	-1.4918449
97	0xbeedf428	-0.4647534
98	0xbf815a43	-1.0105671
99	0xbc6fb477	-0.0146304285
100	0xbf92e23d	-1.1475292
101	0xbd11c69d	-0.035589803
102	0xbf395018	-0.7238784
103	0xbeb4e13d	-0.35328093
104	0x3eda24e5	0.42606273
105	0x3e0229b6	0.12711224
106	0xbf8a5f23	-1.0810283
107	0xbfdb61c8	-1.7139215
108	0x3fc199fa	1.5125115
109	0xbf0a0aa0	-0.5392246
110	0xbf1071c0	-0.5642357
111	0xbf5b829b	-0.85746163
112	0xbf637c3e	-0.88861454
113	0xbffb5a30	-1.9636898
114	0x3ec6a3dd	0.38796893
115	0xbfb6312a	-1.4233754
116	0xbfb7a7ad	-1.4348046
117	0xc07392f2	-3.8058438
118	0xc04409d4	-3.0630999
119	0xbfa2b8f3	-1.2712692
120	0xc01afd93	-2.421727
121	0xbf89752d	-1.0738884
122	0xbf07f208	-0.53103685
123	0xbead4092	-0.33838326
124	0xbe73634c	-0.23768348
125	0xbf1cd135	-0.61256725
126	0x3f5ad36d	0.8547886
127	0x3f6acec2	0.9172174
128	0x3ef184e9	0.47171715
129	0x3f82274b	1.0168241
130	0x3ed00861	0.40631393
131	0xbeff9135	-0.49915472
132	0xbf83f70a	-1.0309765
133	0xc016fdea	-2.3592477
134	0xc0615802	-3.5209966
135	0xbf9cc44a	-1.2247403
136	0xc032cb6c	-2.793666
137	0xbfa393bd	-1.2779461
138	0x3f118ecc	0.56858516
139	0xc003db76	-2.0602698
140	0xbeb80dbc	-0.35947978
141	0x3e47c322	0.19508031
142	0x3d708211	0.05871779
143	0x3f892587	1.0714577
144	0xbe702541	-0.23451711
145	0x3e015d43	0.12633233
146	0x3f507f0a	0.81443846
147	0xbf1bd14b	-0.6086623
148	0xc011ccf6	-2.2781348
149	0x3e874cc4	0.26425755
150	0x3f874ba0	1.0569954
151	0xbf81c6b6	-1.0138767
152	0xbff8d679	-1.9440452
153	0x3f47db2f	0.7806882
154	0xbd849b12	-0.0647489
155	0xbfc65680	-1.5495148
156	0x3e2b496a	0.16727224
157	0xbf9bf1d1	-1.2183172
158	0xbfe0eee6	-1.7572906
159	0xbe5edfa5	-0.21765001
160	0xbfaf6d19	-1.3705169
161	0xbfb226c3	-1.3918079
162	0xbee1af20	-0.44078922
163	0xbfbb69bb	-1.4641641
164	0x3e9f5fb5	0.31127706
165	0x3f89afb4	1.0756745
166	0xbfaf4ac4	-1.3694692
167	0xbfbaad45	-1.4584128
168	0x4029787b	2.6479785
169	0xbec810bb	-0.39075264
170	0xc014a2fd	-2.322448
171	0x3f9488af	1.1604213
172	0xbe8cae54	-0.27476752
173	0x3eb5c03b	0.35498223
174	0x401088b7	2.2583444
175	0x3fe6a011	1.8017598
176	0xbf7d2e1f	-0.988985
177	0x4026eca8	2.6081944
178	0x3f8f1aaa	1.1180012
179	0xbfeb8126	-1.8398788
180	0x3f4b2375	0.7935098
181	0xbe2b8013	-0.16748075
182	0xbf9e0877	-1.2346333
183	0x3fff4088	1.9941568
184	0x3fcc4348	1.5958033
185	0x3e882aea	0.2659524
186	0x3fd5a7d4	1.6691842
187	0x4015a1b8	2.3379955
188	0x3f91b2dd	1.138271
189	0xc0210773	-2.5160797
190	0x3f2a03d7	0.6641211
191	0x3e0cc6d4	0.13747722
192	0x3d39570f	0.04524904
193	0x3dc5d051	0.09658874
194	0xbe07dbe2	-0.13267472
195	0x3e3153a0	0.17317057
196	0xbfddefc4	-1.7338796
197	0xbff4403b	-1.9082102
198	0x3fd301cb	1.6484922
199	0x3fe4264b	1.7824186
200	0xbf2aafb5	-0.6667436
201	0xbfabb4e5	-1.341458
202	0xbf9a0f99	-1.203601
203	0xbf16eaf6	-0.5895227
204	0xbed466b7	-0.41484615
205	0xc03dc642	-2.9652257
206	0xbeb3013f	-0.34961888
207	0x3fe3d6f4	1.7799973
208	0x3f500922	0.81263936
209	0xbfff3ba1	-1.9940072
210	0x3fd861c3	1.6904835
211	0x3f975730	1.1823483
212	0xbed881d1	-0.42286542
213	0xbf16ca14	-0.58902097
214	0x3f8dd861	1.1081659
215	0x3f029ed1	0.51023585
216	0x3f0e17c8	0.5550504
217	0xbed255e1	-0.41081145
218	0xbd5c09c5	-0.053720254
219	0x3cd5d698	0.026103303
220	0xbf23cee6	-0.63987577
221	0xbf72669e	-0.9468783
222	0xbf9add8b	-1.209886
223	0xbf838daa	-1.0277607
224	0xc0083a47	-2.128557
225	0x3fa8517f	1.3149871
226	0xbd99797a	-0.07493873
227	0x3f5810d4	0.8440068
228	0x3f46283a	0.7740513
229	0x3f221679	0.6331554
230	0x3f8ce017	1.1005887
231	0x3ff8dbc0	1.9442062
232	0x4000e1b2	2.0137753
233	0x402eb897	2.7300165
234	0x3ffe7974	1.9880815
235	0xbf88a9d9	-1.0676833
236	0xbfb5eea9	-1.4213458
237	0x3e291d03	0.16514973
238	0x3f879251	1.0591527
239	0xbf9131cc	-1.1343322
240	0xc00e0669	-2.2191412
241	0x3c2441d1	0.0100254575
242	0xbf5fe047	-0.87451595
243	0x3fea10fa	1.8286431
244	0x3ea10024	0.3144542
245	0xbd2e2e8e	-0.042524867
246	0x3f1cebb6	0.61297166
247	0x3f9bfda2	1.2186778
248	0xbf2f0f17	-0.683824
249	0xbf168cc4	-0.5880854
250	0x3e8770e8	0.26453328
251	0x3ef28e22	0.47374064
252	0x3f84fd8a	1.0389874
253	0x3e868a9b	0.26277623
254	0xbfc9ea76	-1.5774677
255	0xbe18e1d9	-0.14929904

layer2.0.bn1.weight f4 [32]
0	0x3f87ea94	1.0618463
1	0x3fbb5fd1	1.4638616
2	0x403a2128	2.9082737
3	0x4009ad3d	2.1511986
4	0x3fb7d62c	1.4362235
5	0x402ec70a	2.7308984
6	0x4022f194	2.5459948
7	0x400c0b77	2.1881998
8	0x3fde5ed9	1.7372695
9	0x400ac16f	2.1680562
10	0x3f45491e	0.7706469
11	0x401c030c	2.437686
12	0x4001b2c0	2.026535
13	0x4034067f	2.8128965
14	0x401e7aed	2.4762528
15	0x3fb1b335	1.3882815
16	0x3fc41f7b	1.5322107
17	0x3e0f242f	0.13978647
18	0x3fb8acdd	1.4427754
19	0x403c0d37	2.9383066
20	0x3ff1f459	1.8902694
21	0x401a9a84	2.415681
22	0x400aa1e9	2.1661322
23	0x3f96bf99	1.1777221
24	0x400ec416	2.2307181
25	0x3fd9d609	1.7018443
26	0x3fcd6027	1.6044968
27	0x4001356c	2.0188856
28	0x40170e86	2.3602614
29	0x3fb3ee02	1.4057009
30	0x400a3d2c	2.1599836
31	0x3fee235d	1.8604542

layer2.0.bn1.bias f4 [32]
0	0xbe789b97	-0.24278103
1	0xbe96e15c	-0.2946881
2	0xbfa64d00	-1.2992249
3	0xbf435fae	-0.7631787
4	0xbead855e	-0.33890814
5	0xbf5b47c1	-0.8565636
6	0xbf84544a	-1.0338223
7	0xbfaa88a8	-1.3322954
8	0xbf68fa1d	-0.9100664
9	0xbf6577a6	-0.89635694
10	0x3fb5c096	1.4199398
11	0xbf62969e	-0.88511074
12	0xbe991923	-0.2990199
13	0xbf581c49	-0.8441816
14	0xbf2e89b0	-0.68178844
15	0x3f3fd302	0.7493135
16	0xbf947345	-1.1597677
17	0x3f7fbf42	0.9990121
18	0xbf6ced9e	-0.92550075
19	0xbf9e4b5a	-1.2366745
20	0xbfc4ae6b	-1.5365728
21	0xbf620924	-0.882952
22	0xbebb3612	-0.3656469
23	0xbf3cf106	-0.7380527
24	0xbef9bfc9	-0.48779133
25	0xbef0c70a	-0.47026855
26	0xbf9b8db5	-1.215262
27	0xbf57b2e2	-0.8425733
28	0xbfc868ba	-1.565696
29	0xbe0f5d92	-0.14000538
30	0xbea224c2	-0.3166867
31	0x3f24328e	0.6413964

layer2.0.bn1.running_mean f4 [32]
0	0xc28c5125	-70.158485
1	0x40aad6a3	5.338701
2	0xc1dc3767	-27.527052
3	0xc295e0f1	-74.93934
4	0xc3150cee	-149.0505
5	0xc282a49f	-65.321526
6	0xc2cc2c31	-102.08631
7	0xc19808b3	-19.004248
8	0x41a2aff4	20.335915
9	0xc29744bf	-75.63427
10	0xc2bcca7b	-94.39547
11	0xc0f48ef0	-7.6424484
12	0xc19cd151	-19.602205
13	0xc1ebd95e	-29.481136
14	0x421ff5d3	39.990063
15	0xc3143f0f	-148.24632
16	0xc0d15666	-6.5417967
17	0xc01746ce	-2.3636966
18	0xc28757b1	-67.67127
19	0xc207ad74	-33.919388
20	0x40578572	3.3675199
21	0xc2802bd1	-64.08558
22	0x4245ff32	49.499214
23	0xc1214d26	-10.081335
24	0xc1ee5942	-29.793583
25	0xc1d327f3	-26.394506
26	0x416843c4	14.516544
27	0xc2b60b4d	-91.02207
28	0xc20381ea	-32.87687
29	0xc1648229	-14.281777
30	0xc226c1b8	-41.68918
31	0xc29fe0bb	-79.93893

layer2.0.bn1.running_var f4 [32]
0	0x4591b7e6	4662.9873
1	0x45c2f61d	6238.764
2	0x45ba5d1d	5963.639
3	0x45878782	4336.9385
4	0x45bdebe0	6077.4844
5	0x45f67708	7886.879
6	0x45aec87c	5593.0605
7	0x45a8254c	5380.662
8	0x452330b3	2611.0437
9	0x45c85473	6410.556
10	0x4537b81a	2939.5063
11	0x458c4c1b	4489.513
12	0x460af5ee	8893.482
13	0x45f5a852	7861.04
14	0x4581a546	4148.659
15	0x4583e16f	4220.179
16	0x454a4c58	3236.7715
17	0x4573f6b3	3903.4187
18	0x45acd5ab	5530.7085
19	0x45e51f41	7331.9067
20	0x456b6925	3766.5715
21	0x45db27ef	7012.9917
22	0x45ae5d2f	5579.648
23	0x454c4adb	3268.6785
24	0x46041804	8454.004
25	0x4540baac	3083.667
26	0x45152be2	2386.7427
27	0x458a77a1	4430.9536
28	0x452a6b86	2726.7202
29	0x459d6653	5036.7905
30	0x45add3c7	5562.472
31	0x459885f9	4880.7466
